tutorials/rnn_model.pkl (torch, 10575 bytes, 18 tensors)

submodules_rnn.x_value_reward_chosen.linear_in.weight f4 [9, 1]
000000 b6 a2 ca 3e b7 da ab be 6e 28 44 3f 1c a3 34 bf
       0.39577264 -0.33565304 0.7662419 -0.70561385
000010 f1 5f 90 3e f5 95 ac be 2e 5b e3 3d 8c 76 a6 be
       0.28198197 -0.33708158 0.111013755 -0.3251232
000020 50 7a d7 3e
       0.42085505

submodules_rnn.x_value_reward_chosen.linear_in.bias f4 [9]
000000 0b c7 a2 bc 72 0c c6 3d 48 d7 00 3d f1 19 17 3e
       -0.019870302 0.096703425 0.03145531 0.1475599
000010 08 fe ee bd 04 96 1d be 79 c8 a4 3c 1e 96 54 3d
       -0.11669546 -0.15389258 0.020115124 0.051900975
000020 25 65 8b bd
       -0.06806401

submodules_rnn.x_value_reward_chosen.gru_in.weight_ih_l0 f4 [3, 9]
000000 bc 70 bd be 9f a5 17 3f 2f 48 15 bf 25 01 a0 be
       -0.37000072 0.5923709 -0.5831327 -0.31250873
000010 0b f4 df be a3 eb 3f 3f 98 20 d3 3d 02 d9 1d 3f
       -0.43740878 0.7496893 0.10308951 0.6165925
000020 5e b7 14 bf bc c3 3d bf 2b 03 2b bf 84 15 0c bf
       -0.58092296 -0.7412679 -0.6680171 -0.5472033
000030 57 b2 b7 3e ba 74 93 3e 00 d5 30 3f 2f e0 e6 be
       0.3587825 0.28799993 0.6907501 -0.45092914
000040 b5 82 be be e4 31 9e 3e 1d eb f6 be 02 2a 3f 3f
       -0.37209097 0.3089744 -0.48226252 0.74673474
000050 6b ec b8 be 3a c6 1c 3f eb 31 5d bf 6a ac 3a be
       -0.36117873 0.6123997 -0.86404294 -0.18229833
000060 51 73 e2 3c 3c 12 af 3e 01 73 c4 be
       0.027642878 0.341936 -0.3836899

submodules_rnn.x_value_reward_chosen.gru_in.weight_hh_l0 f4 [3, 1]
000000 30 b8 73 3f 52 03 3a 3e 1c 94 1d bf
       0.9520292 0.18165329 -0.6155412

submodules_rnn.x_value_reward_chosen.gru_in.bias_ih_l0 f4 [3]
000000 04 05 49 be 24 34 8a bd d8 97 f2 3d
       -0.1963082 -0.06748226 0.11845368

submodules_rnn.x_value_reward_chosen.gru_in.bias_hh_l0 f4 [3]
000000 04 05 49 be 24 34 8a bd 96 66 9d 3e
       -0.1963082 -0.06748226 0.3074233

exp_avg f4 [9, 1]
000000 7a 0c f5 37 c5 7d 39 37 a3 b4 a5 37 22 0e c8 b7
       2.9212086e-05 1.1056142e-05 1.9753648e-05 -2.3848439e-05
000010 a2 8b 76 36 b3 20 64 b7 49 10 6d 37 90 6e 1b 37
       3.6738134e-06 -1.3597472e-05 1.41300925e-05 9.264462e-06
000020 54 a8 d4 b6
       -6.3376883e-06

exp_avg_sq f4 [9, 1]
000000 f5 85 86 37 e5 cc d6 35 a0 c1 d8 36 94 f4 5d 37
       1.6036423e-05 1.6003875e-06 6.4598426e-06 1.3229572e-05
000010 c9 57 e3 36 05 6f 9c 35 04 25 17 35 30 17 73 35
       6.7753467e-06 1.1655217e-06 5.630575e-07 9.0558297e-07
000020 fc 13 db 34
       4.080647e-07

exp_avg f4 [9]
000000 b8 fe b4 b6 a9 2d 2c b8 16 69 f3 b6 c6 ec 95 b7
       -5.394071e-06 -4.105052e-05 -7.254198e-06 -1.787244e-05
000010 5e 62 1b 38 b2 c1 10 38 23 e5 4d b7 99 8b 8c b7
       3.704649e-05 3.451267e-05 -1.2272302e-05 -1.6754306e-05
000020 0d 35 8f 37
       1.7071632e-05

exp_avg_sq f4 [9]
000000 07 0b 7a 36 4c 5b 8f 37 06 5e ee 35 2a c7 a0 36
       3.7259322e-06 1.7089442e-05 1.7759746e-06 4.7915573e-06
000010 f6 2b 8c 37 fb 65 d3 36 93 65 8d 36 5a 37 e9 36
       1.6709771e-05 6.300162e-06 4.2139523e-06 6.950385e-06
000020 d2 fc c9 36
       6.019699e-06

exp_avg f4 [3, 9]
000000 b1 7d 14 36 ee e1 83 b5 bf 00 aa 36 d4 b5 34 b6
       2.212688e-06 -9.826015e-07 5.0664817e-06 -2.6927928e-06
000010 5c ac e7 34 53 d0 7e b6 ef ec 74 35 06 4c be b5
       4.315251e-07 -3.797021e-06 9.1241867e-07 -1.4178229e-06
000020 d2 07 f5 35 bd 29 57 b7 48 4a 5a 37 94 20 c0 b7
       1.8256198e-06 -1.2824717e-05 1.30111075e-05 -2.2903354e-05
000030 8e 3f d9 37 b0 ee 47 b7 77 b8 d2 36 e1 0f 45 b6
       2.589801e-05 -1.1916898e-05 6.2799622e-06 -2.936453e-06
000040 2b 50 40 37 05 78 79 b7 19 67 cf b6 5e 0a 0d 36
       1.1462757e-05 -1.4869501e-05 -6.181083e-06 2.1016672e-06
000050 6f ff 76 b7 4a 03 de 36 e1 2d ca b4 b0 2c 49 37
       -1.4722215e-05 6.6164985e-06 -3.7658813e-07 1.1990938e-05
000060 41 dc 38 b6 5b b0 76 36 d3 7d 9e b6
       -2.7546341e-06 3.675951e-06 -4.723415e-06

exp_avg_sq f4 [3, 9]
000000 42 d8 1f 33 5a 47 62 31 d2 fb 20 34 26 62 f1 33
       3.7216758e-08 3.2927887e-09 1.4992773e-07 1.124029e-07
000010 52 1d 5c 31 4f 80 d9 33 48 45 e9 32 82 94 a7 32
       3.203088e-09 1.0128189e-07 2.7156275e-08 1.9508892e-08
000020 1d 15 86 32 25 2c 79 35 d7 86 2e 33 16 6a 94 36
       1.5609254e-08 9.282397e-07 4.0635168e-08 4.4230937e-06
000030 a0 f1 74 36 63 80 c9 33 c7 24 30 36 0a 67 31 35
       3.6499478e-06 9.383145e-08 2.624745e-06 6.608758e-07
000040 86 e8 07 35 08 30 df 34 39 bb 43 36 d8 53 bd 33
       5.0629785e-07 4.1571934e-07 2.9166242e-06 8.8162494e-08
000050 49 4c 70 37 10 b9 41 37 39 29 54 34 37 35 19 37
       1.4322876e-05 1.1546785e-05 1.9759035e-07 9.131901e-06
000060 48 87 13 36 5a bc fd 35 d1 ed c6 35
       2.198345e-06 1.8904786e-06 1.4821363e-06

exp_avg f4 [3, 1]
000000 47 65 8d 38 ff 9a e4 38 56 1d 28 b9
       6.742268e-05 0.000109007575 -0.00016032657

exp_avg_sq f4 [3, 1]
000000 6f fe a4 35 cd 9f 56 37 80 48 ae 36
       1.2293002e-06 1.27926005e-05 5.194044e-06

exp_avg f4 [3]
000000 1b 6a 3c 37 fc 92 e5 37 eb b3 25 b8
       1.1230378e-05 2.7367372e-05 -3.9506627e-05

exp_avg_sq f4 [3]
000000 9e 75 c9 35 79 66 f0 36 8d b5 05 38
       1.5009898e-06 7.1644868e-06 3.1878753e-05

exp_avg f4 [3]
000000 1b 6a 3c 37 fc 92 e5 37 ba 28 03 b8
       1.1230378e-05 2.7367372e-05 -3.1270763e-05

exp_avg_sq f4 [3]
000000 9e 75 c9 35 79 66 f0 36 ea 25 fb 36
       1.5009898e-06 7.1644868e-06 7.4847967e-06
