tutorials/rnn_model.pkl (torch, 8215 bytes, 12 tensors)

submodules_rnn.x_value_reward_chosen.gru_in.weight_ih_l0 f4 [3, 1]
0	0xbfc32edb	-1.5248674
1	0x3f940035	1.1562563
2	0xbf820fa5	-1.0161024

submodules_rnn.x_value_reward_chosen.gru_in.weight_hh_l0 f4 [3, 1]
0	0xbf72baf2	-0.94816506
1	0xbd33f936	-0.043938838
2	0xbf1b901a	-0.60766757

submodules_rnn.x_value_reward_chosen.gru_in.bias_ih_l0 f4 [3]
0	0x3f8ee058	1.1162214
1	0xbf3b8d9b	-0.7326295
2	0x3f548173	0.83010024

submodules_rnn.x_value_reward_chosen.gru_in.bias_hh_l0 f4 [3]
0	0x3f8ee058	1.1162214
1	0xbf3b8d9b	-0.7326295
2	0x3f9c4e87	1.2211465

exp_avg f4 [3, 1]
0	0x3a2078d1	0.00061215187
1	0x3b7393d2	0.0037166965
2	0x3b6a9b01	0.0035797956

exp_avg_sq f4 [3, 1]
0	0x34b9c933	3.4605327e-07
1	0x38b8d3fc	8.813289e-05
2	0x380e9d90	3.400218e-05

exp_avg f4 [3, 1]
0	0x39798723	0.00023796833
1	0x3ab10c6a	0.0013507728
2	0xba6a174c	-0.0008929863

exp_avg_sq f4 [3, 1]
0	0x348e3afd	2.649248e-07
1	0x39a69584	0.00031773385
2	0x370ec354	8.509338e-06

exp_avg f4 [3]
0	0x39d22df2	0.00040088553
1	0xb9a2c098	-0.0003104254
2	0x3a3e80e3	0.00072671304

exp_avg_sq f4 [3]
0	0x34d117f1	3.8946703e-07
1	0x387d0e16	6.033302e-05
2	0x385db2dc	5.285708e-05

exp_avg f4 [3]
0	0x39d22df2	0.00040088553
1	0xb9a2c098	-0.0003104254
2	0xb9554917	-0.00020340491

exp_avg_sq f4 [3]
0	0x34d117f1	3.8946703e-07
1	0x387d0e16	6.033302e-05
2	0x378201b5	1.5498003e-05
